…
The model object is a list containing two elements: i) the complete dictionary of the possible characters inside a Captcha and ii) the fitted \code{keras} model used to make predictions. in \code{tjrs} example, these are

```{r model-labs-example, eval = FALSE}
tjrs_model$labs
```

    [1] "0" "1" "2" "3" "4" "5" "6" "7" "8" "9"

```{r model-spec-example, eval = FALSE}
tjrs_model$model
```

    Model
    _______________________________________________________________________
    Layer (type)                   Output Shape                 Param #    
    =======================================================================
    conv2d_4 (Conv2D)              (None, 40, 110, 4)           104        
    _______________________________________________________________________
    max_pooling2d_4 (MaxPooling2D) (None, 20, 55, 4)            0          
    _______________________________________________________________________
    conv2d_5 (Conv2D)              (None, 20, 55, 16)           1616       
    _______________________________________________________________________
    max_pooling2d_5 (MaxPooling2D) (None, 10, 27, 16)           0          
    _______________________________________________________________________
    conv2d_6 (Conv2D)              (None, 10, 27, 32)           12832      
    _______________________________________________________________________
    max_pooling2d_6 (MaxPooling2D) (None, 5, 13, 32)            0          
    _______________________________________________________________________
    flatten_2 (Flatten)            (None, 2080)                 0          
    _______________________________________________________________________
    dense_3 (Dense)                (None, 16)                   33296      
    _______________________________________________________________________
    dropout_2 (Dropout)            (None, 16)                   0          
    _______________________________________________________________________
    dense_4 (Dense)                (None, 50)                   850        
    _______________________________________________________________________
    reshape_2 (Reshape)            (None, 5, 10)                0          
    _______________________________________________________________________
    activation_2 (Activation)      (None, 5, 10)                0          
    =======================================================================
    Total params: 48,698
    Trainable params: 48,698
    Non-trainable params: 0
    _______________________________________________________________________

## Data

Unfortunately the data needed to fit Captcha solvers do not comply with CRAN package policies. The size of a complete dataset of images can sum up to a couple of Gigabytes. 
…
